net/new_params.pth (torch, 31541 bytes, 14 tensors)

conv1.0.weight f4 [6, 1, 5, 5]
00000000: bb91 07be fad5 bb3d 505b b63d 53aa 853d
00000010: 373a 123d f0c5 d63c 2f87 f8bd 5357 47be
00000020: ac15 863d 69b3 26be 07f0 0c3e 2661 54be
00000030: 3ae6 4fbe ec4b 08bd a9d0 60bd a28c b03d
00000040: 4d0f 233e dc49 043e dcba 1d3e 2795 8dbd
00000050: ea55 823b 4f99 2f3e 459d 193e 8b70 30be
00000060: 19a5 14be d6b5 323e 98f3 bbbc bd43 303e
00000070: eaa0 aebd fddd 02bd 0b01 12bd 898d 183e
00000080: 4a6f 903e c19f 78bd 4920 40bc 0a78 debd
00000090: c13b 1c3d 514f 11bd 86c0 6f3e c8df 3a3d
000000a0: 22e1 c4bd 46b3 69be 4235 b43c 469a 28be
000000b0: 89d6 a53d 147f 85bd 19ea b7bd d765 6cbd
000000c0: 454d bd3d 4747 23bd f503 b73d 5bd0 2d3e
000000d0: 4b76 313e d367 413c 4985 f1bd ae98 a73d
000000e0: 3820 453e a79f c5bd 15b8 fdbc b912 5fbe
000000f0: 9097 393e 9cc6 f43c 3292 dcbd 3b46 36bd
00000100: 3f7c 5dbe 325f ec3d a7aa 01be f857 6abd
00000110: ae69 28be a9c1 b8bc 44e9 ae3d 1d64 e5bd
00000120: 96e6 b63d c6c9 37be dd7a efbc b767 f93d
00000130: dfa8 e93c cea7 0dbe 8a02 343e b8a4 76bd
00000140: 6993 bb3d 18c2 e3bd 0baf 1a3e dd10 433e
00000150: c6c0 cc3d 8b67 5c3d 63b9 6e3e 7112 563e
00000160: 4540 babd 7683 613e c3ec 843e 03d4 d43b
00000170: 4bac 47bd 3539 13be 77ca adbd 9187 b7bd
00000180: 0077 913c c920 383d f1b0 123d cbe3 e83d
00000190: 1e9e 223e afd7 efbd 2caa 113d 95d0 81bd
000001a0: 7f0f 45bc 08e8 0a3e 2cd3 a1bd 4507 1abe
000001b0: 9a15 fbbc c267 153e 6e03 a73d 0780 0fbe
000001c0: 624e c33d 6dd2 74be 6a92 25bd 67e7 383e
000001d0: fe70 b73d b4f9 59be 4654 f43a a8a3 69bd
000001e0: 5e87 483e b7af dfbd 44e9 e03c fabb 26bd
000001f0: f85f 2b3e a73c 78be a1c3 b43d 03ba 8d3c
00000200: c1a0 3abe 27cb c0bd 6be8 fcbd 700a 14be
00000210: 060a 53bb b4b4 e5bd cd6d 4fbd 4c1c aebd
00000220: 265e 2e3e 352f 0f3e 10c5 2cbe f999 4cbe
00000230: 692e 5c3e d5a0 b73d aabb 0f3e 1a28 d2bd
00000240: ad2a 183e b8e1 8a3e 725f 183e a560 3f3e
00000250: 1d21 d1bd 3277 073e
-0.13239186 0.09171672 0.08904135 0.065266274 0.03570005 0.02621743 -0.12135159 -0.19466905
0.06547102 -0.16279377 0.13763438 -0.20740184 -0.20302668 -0.03327553 -0.054886494 0.086205736
0.15923806 0.129188 0.15403312 -0.06913214 0.003977527 0.17148326 0.150014 -0.17230432
-0.14516105 0.17452177 -0.022943303 0.1721334 -0.08526786 -0.031949986 -0.035645526 0.14897741
0.28209907 -0.06069923 -0.011726447 -0.108627394 0.038142923 -0.035476033 0.23413286 0.04562357
-0.09613253 -0.22822294 0.021998052 -0.164651 0.0809756 -0.06518379 -0.089801975 -0.05771431
0.092432536 -0.039862897 0.089363016 0.16974013 0.17330281 0.011804539 -0.11793 0.08183418
0.19250572 -0.09649592 -0.030971566 -0.21784486 0.18124223 0.02987986 -0.10770072 -0.04450057
-0.21629427 0.115415946 -0.12662755 -0.0572128 -0.16446564 -0.022553282 0.08540586 -0.11200736
0.089306995 -0.17948064 -0.02923339 0.12177985 0.028522907 -0.13833544 0.17579094 -0.06021568
0.09158976 -0.11121005 0.15105836 0.19049402 0.09997706 0.053809684 0.23312907 0.20905472
-0.0909429 0.22022805 0.25961885 0.0064950003 -0.048748296 -0.14377292 -0.08485883 -0.08961404
0.017756939 0.04495314 0.035813276 0.11371573 0.1588063 -0.1171106 0.03556268 -0.06338612
-0.01202762 0.13565075 -0.07901606 -0.15041836 -0.030649949 0.14590362 0.08154951 -0.14013682
0.09536435 -0.23908396 -0.040422834 0.18057023 0.089570984 -0.2128666 0.0018640838 -0.05704084
0.19582888 -0.10922187 0.02745498 -0.040706612 0.16735828 -0.24241887 0.08826376 0.017300611
-0.18225385 -0.09413748 -0.12349018 -0.14457107 -0.003220202 -0.11216107 -0.050641824 -0.08501491
0.17028102 0.13982852 -0.16872048 -0.19980611 0.21502079 0.08966223 0.14036432 -0.10261555
0.1486003 0.27125335 0.1488016 0.1868921 -0.10211394 0.13229063

conv1.0.bias f4 [6]
00000000: dbfa 463e 600c 1cbe e83b 133e 0b6a f03d
00000010: 6b72 37be f2b6 033e
0.19431631 -0.15239096 0.14378321 0.11738976 -0.1791474 0.12862757

bn1.weight f4 [6]
00000000: 05f5 783f 5f03 843f f904 8a3f 6a05 7f3f
00000010: 8a99 6d3f 1726 7a3f
0.9724887 1.0313529 1.0782768 0.99617636 0.92812407 0.9771437

bn1.bias f4 [6]
00000000: a66c e63c 3556 323e 72fa f93d bd62 0b3e
00000010: 3208 f33c 25ed 523e
0.02812798 0.17415698 0.12205972 0.13611884 0.029666994 0.20598276

bn1.running_mean f4 [6]
00000000: 7cd9 433e c32f c33c 9ea1 333e e551 993e
00000010: d171 433c 1f50 413e
0.19125932 0.023826485 0.17542121 0.29945293 0.011928991 0.1887822

bn1.running_var f4 [6]
00000000: 3d9f 573c a26f f53b c633 173d 8f85 c63d
00000010: 99f5 2e3b 060d 423d
0.013160524 0.0074901143 0.03691461 0.09693443 0.002669668 0.0473757

conv2.0.weight f4 [16, 6, 5, 5]
00000000: c541 753b 265d f8bc 7cf8 3cbd fa14 ccbd
00000010: ba5b 38bd f1b9 083c 6372 28bd ece3 09bd
00000020: 5b55 21bd 4a11 fcbc f483 cebc 650f 00bd
00000030: ce32 66bd 7b8f 153d 3dd8 4c3b 7fa3 293d
00000040: 294b cfbd 1f13 bfbd 6adf d93c ddd0 bd3b
00000050: ef72 93bc e997 d5bd 1987 82bd 6f20 b23d
00000060: 952b b53d a950 ad3c c05c 74bc 656d 9cbc
00000070: 86ec a9bd 7e5f ccbd 6153 b7bc 0f70 ffbc
00000080: 980e adbd bbd3 33be 0ef2 19be f42a aebd
00000090: 76d4 a43d e40f febd 6653 a2bd 3538 62bc
000000a0: b0a0 52bd d7bc 283d 794e 8dbd 65c3 34be
000000b0: e43f 03be c539 103c 5970 3f3d 3c5f 533d
000000c0: af2d 84bc 2e24 8abd f866 523d f1a7 093e
000000d0: aa0d 2c3d 3950 143d c4ba 56bc dbb9 4d3d
000000e0: 4e17 24bc f81c 843d 1907 a6bc 400d 61bd
000000f0: 42d2 703d e046 95bd f247 81bd 8b28 033d
00000100: a446 b63d 75a9 58bd e914 d6bc bc8e 1abd
00000110: 64e0 f4bc da31 763c 1850 783d 6ab6 9fbd
00000120: bd14 78bd e0be a4bb ecd4 fdbd b52d 2b3c
00000130: 1227 dfba 43fd 833d 01e7 803d 6804 efbc
00000140: a559 5e3a 884d 53bd 229e c63d c00c 093d
00000150: a7ad 3ebd aa50 90ba 0907 51bd 3217 18bc
00000160: f5e9 5d3d c4c0 8d3d 55d1 87bc bda5 b43b
00000170: 15a5 2a3b 57a2 893b 367c cdbc b4c7 35bd
00000180: a857 c2bc 3182 69bd d5dd f93c bf38 fa3c
00000190: d547 dbbc 4258 20bd f01a 4bbd f6bd d53d
000001a0: 25d5 8b3d 219a 9c3c 20e1 18bd 3929 663d
000001b0: 8b3e 393c 4ca6 7bbd 5d9f 4bbb 636f eabc
000001c0: efec 33bd a32f 91bc 589b 1a3d 4c8b 1f3d
000001d0: 2697 433d 3c4e 79bd ab18 823d 1c7f 9b3a
000001e0: b23d 5f3a b7c4 0abd 92f6 313d c6c5 4a3d
000001f0: df19 423d 73ac ffbc 973a 4e3d 9bd8 1f3d
00000200: 227a 793d f47f 58bc a122 15bd 627f 8dbd
00000210: d7ee 5cbb 3c1b a0bd 9070 943d ed3c 3f3d
00000220: 8b2e 1f3d cb12 9a3c c38f 233c 3e04 973d
00000230: 3005 773d a37b e2bc 83cc 9abc 777e 303d
00000240: 1a4b f0bc d108 5bbb 7907 e5bd 3b79 813c
00000250: 9934 22bb e855 14bd 02b1 4b3c f708 a1bd
00000260: bb7c 0ebd a0cf 813d fab2 1d3d 177a 78ba
00000270: 8ea8 7dbd 1225 36bd 00dc 9abc 9932 9bbc
00000280: fee1 9fbd 464a d13c 2306 143d 3887 2d3d
00000290: a1ee 863d 9436 d3bc 781f 50bd af67 16bc
000002a0: 3fee 9fbc 1f4b 7ebc 476c 3bbb 8a39 3dbc
000002b0: bc9d 4f3d 1386 e23b e449 043d 1241 b83c
000002c0: ce02 d33d 5f95 14bc 4774 eabc ad05 b73d
000002d0: 69a8 0f3d 3b09 23bd 3a63 b33d 1e3d 923d
000002e0: 5d00 a6bd cf55 b93d 6a84 43bd 5651 c7bd
000002f0: 21ab d3bc 161a 8f3c 3c1f 9ebd 39ed b4bd
00000300: 43cb 55bc 99b0 bfbd ca51 213d 43d5 acbc
00000310: 2ced f3bb eb69 7dbc 720a bdba 11d2 15bd
00000320: 0a75 ccbd 9907 b3bd 54ab 1a3d cd14 10bd
00000330: 01aa 06bc a84d 8cbd 5d53 03be 5331 acbd
00000340: f93a 6a3c 8936 eabd 2a29 843c 53f4 b8bd
00000350: 02e6 a1bc 0ea3 b9bd 1935 24bd 4b29 8a3c
00000360: 77dd 9b3c 012f 80bd e510 503d 044d f2bc
00000370: 8626 883c 4ec1 693d 5e19 60bc 1101 61bc
00000380: 3a6e bbbd 432f 803d 1407 50bd b7c3 443d
00000390: deb1 dcbc d4de f8bd 0c4c 9e3b 28c2 ad3d
000003a0: 6a7e 0dbd fb7c 873d a6cb 16bd 44d0 84bd
000003b0: 2845 593c 421b a3bb 0ed2 783d 34dd 5e3d
000003c0: 1e26 323d 30f3 00bd f54c c63d c8e1 e73d
000003d0: 6a4d 633c 9ced 36bd 39dc 363d 1e17 c2bc
000003e0: 05ed b0bc 9c43 e7bd 0adc 7dbd 3054 77bd
000003f0: 7412 afbd 4afa 3d3d b50f 48bd cd48 70bd
0.0037423235 -0.030317854 -0.04613541 -0.099649385 -0.045009352 0.008345113 -0.041124713 -0.03366463
-0.039388042 -0.030769963 -0.025209405 -0.03126468 -0.056200795 0.036513787 0.0031256818 0.041415688
-0.101217575 -0.09329819 0.02659579 0.0057927207 -0.01799914 -0.10429365 -0.06373424 0.086975925
0.08846203 0.021156626 -0.014914691 -0.019095132 -0.082970664 -0.09979151 -0.022378625 -0.031181363
-0.08450049 -0.17561238 -0.15033743 -0.085042864 0.08048336 -0.12405375 -0.07926063 -0.013807346
-0.051422775 0.041195717 -0.06899733 -0.17652662 -0.12817341 0.008802836 0.046738002 0.051604494
-0.016135065 -0.06745182 0.05136773 0.13442971 0.04200522 0.03620932 -0.013106052 0.050226074
-0.010015322 0.06450838 -0.020267056 -0.054944277 0.058794267 -0.07288909 -0.063125506 0.032021087
0.089001924 -0.05289598 -0.026133018 -0.03773378 -0.029892154 0.015026534 0.06062326 -0.077984646
-0.060566653 -0.005027637 -0.12394127 0.010447909 -0.0017025194 0.0644479 0.062940605 -0.029176906
0.0008481986 -0.05158761 0.0969813 0.033459425 -0.046552327 -0.0011010368 -0.0510321 -0.009282874
0.054178197 0.06921533 -0.01657931 0.0055129216 0.0026038338 0.0042002606 -0.025083642 -0.044379905
-0.023723438 -0.057008926 0.030501286 0.030544637 -0.02676765 -0.03914667 -0.049586236 0.10436623
0.068277635 0.019116463 -0.03732407 0.056191657 0.011306415 -0.06143789 -0.003107033 -0.028617566
-0.04392713 -0.01772291 0.037745804 0.038951203 0.04775157 -0.060865626 0.06352361 0.0011863443
0.0008515968 -0.03387901 0.04344804 0.049505018 0.047387954 -0.03121016 0.050348844 0.03902493
0.06090749 -0.0132141 -0.036409978 -0.06909062 -0.0033711696 -0.078176945 0.07248032 0.046688963
0.038862746 0.01880779 0.009983006 0.07373856 0.06030768 -0.027646845 -0.018896347 0.043089356
-0.029332686 -0.0033422003 -0.11183066 0.015804878 -0.002475059 -0.03621474 0.012432339 -0.07863038
-0.03478692 0.063384295 0.038500763 -0.0009478642 -0.061928324 -0.044468947 -0.018903732 -0.018945025
-0.078067765 0.025548112 0.036138665 0.042365283 0.065884836 -0.02578286 -0.05081126 -0.0091799935
-0.019522784 -0.01552084 -0.0028598474 -0.011549363 0.050687537 0.0069129555 0.03229703 0.022491965
0.10303269 -0.009068816 -0.028619898 0.089366294 0.035072718 -0.039803725 0.0875916 0.071405634
-0.08105538 0.0904957 -0.0477337 -0.097323105 -0.025838437 0.017468493 -0.07720801 -0.08834309
-0.01304895 -0.09359855 0.03938464 -0.021097785 -0.0074440446 -0.015467147 -0.0014422669 -0.036577288
-0.09983261 -0.087416835 0.037761047 -0.035176087 -0.008219243 -0.06850749 -0.1282477 -0.08407845
0.014296287 -0.11436183 0.01613291 -0.09030976 -0.019762997 -0.09064303 -0.0400897 0.016865393
0.019026501 -0.06258965 0.050797362 -0.02957774 0.016619932 0.057069115 -0.013677923 -0.013733164
-0.091518834 0.062590145 -0.050788 0.04803821 -0.026940282 -0.12151876 0.004830843 0.08484298
-0.034544386 0.06615635 -0.036815308 -0.06485036 0.013261117 -0.0049776146 0.0607472 0.054410174
0.043493383 -0.03148192 0.09682647 0.11322361 0.013873437 -0.044660196 0.044643614 -0.023692664
-0.021597395 -0.11292192 -0.061977424 -0.06038302 -0.085484415 0.046381272 -0.048843104 -0.05866318

conv2.0.bias f4 [16]
00000000: e3b6 5bbe 5f4a 02be 768a 09be 9a49 10be
00000010: d987 17be b407 debd 4068 18be 1c1e 21be
00000020: 9679 a7bd eee7 06be 6114 38bd efbb b03c
00000030: 57fc ddbc 5688 95bd ddf5 1abe 1c96 15be
-0.21456484 -0.12723683 -0.13431725 -0.14090577 -0.14797916 -0.10841313 -0.14883518 -0.15734142
-0.081774876 -0.13174412 -0.04494131 0.021573989 -0.027097864 -0.07301395 -0.15132852 -0.14608043

bn2.weight f4 [16]
00000000: c860 a13f a7ed 9d3f 1e22 9e3f dbec 993f
00000010: 6a20 973f 70bd a03f 0271 9c3f 9088 9d3f
00000020: bcb5 9e3f 3941 a43f 3d14 953f a1c7 993f
00000030: 86c4 9d3f e451 9e3f 9905 9a3f cf30 aa3f
1.260766 1.2338151 1.2354162 1.2025408 1.1806767 1.2557812 1.2221987 1.23073
1.2399211 1.2832404 1.1646801 1.2014047 1.2325599 1.2368741 1.2032958 1.3296145

bn2.bias f4 [16]
00000000: dd9f 8bbc 9694 05bd d050 3dbc b913 35bd
00000010: bc34 2dbd 3b27 b13b ccac dfbc 2042 20bb
00000020: a16a 2fbc 4513 43bc 7838 51bd ee0a 8bbc
00000030: 0235 20bc 935b 12bd 9c2e 20bd 3c92 9fbc
-0.017044002 -0.032612406 -0.011554912 -0.044208262 -0.04228662 0.005406288 -0.027304076 -0.0024453476
-0.010706575 -0.01190645 -0.051079243 -0.016972985 -0.009778263 -0.035731863 -0.03910695 -0.01947891

bn2.running_mean f4 [16]
00000000: c493 de3d dd93 e43d d68f 2e3e 6c82 ec3d
00000010: ad3d 253e c3e9 da3d a293 ef3d d878 0a3e
00000020: 1afb fe3d 1ce7 ae3d c256 923e bbdc ef3d
00000030: b245 303e c0cf 443e 6ec4 6b3e 7020 d53d
0.10868028 0.11161015 0.17047057 0.115483135 0.16136809 0.10689118 0.116980806 0.1352266
0.124502376 0.08540174 0.28581816 0.11712023 0.17214087 0.19219875 0.2302415 0.104065776

bn2.running_var f4 [16]
00000000: f9dd c33d 7ffe de3d 014d 3d3e 1c53 b93d
00000010: a1c8 123e 8193 c13d 0265 dc3d b67d f63d
00000020: c84a c23d 06a8 9e3d e276 a83e 6854 953d
00000030: d005 203e eefd 333e 28a6 673e 5ea9 e73d
0.09563822 0.10888385 0.18486406 0.09049055 0.14334346 0.09451962 0.10761453 0.12035696
0.0948692 0.07746892 0.329032 0.0729149 0.15627217 0.17577335 0.22621977 0.11311601

conv3.0.weight f4 [10, 16, 5, 5]
00000000: 09f4 cfbc 8a2c 5c3c 0572 34bd 0834 1d3b
00000010: c8d2 023d 589f 04bc bc82 c83c ca4c d3bd
00000020: ed18 473c 06ff 5b3d b26d 703d 3486 583d
00000030: e83d 13be 2a38 72bc ecff 7dbd d63a 063e
00000040: a78b c13d 2e1a 0a3c 431a cbbd 7b2d 7bbd
00000050: d3a0 363c 412e a2bd 5e2f 143b 5272 593d
00000060: 007d 8bbc 5f97 8ebc 6e1e acbc d242 5a3b
00000070: 872c 683d 5847 76bc 1f74 013d 80b5 13bd
00000080: bd1e ad3c dbda 033c f095 1ebc 761e 3ebd
00000090: 8864 58bd 10e5 b7bd 3413 0c3d 06e8 773d
000000a0: eb18 98bc 7640 943c 2c3b 8cba 9513 44bc
000000b0: 6978 913d 83d0 233d 1d5e c33d 123b 323d
000000c0: c1f2 87bd 7851 42bd 0136 90bd 6ebd e9bb
000000d0: 150c c13d c191 8d3d 6b99 86bb bfff 69bd
000000e0: be5a 133d df54 993d f81c e13d 49ce aabd
000000f0: 2558 b3bc aa5c ffbd 187d 663c d19e 7dbc
00000100: daed 50bc ce0d 8a3c 4274 0ebd 269a 6abd
00000110: 6ff8 41bd 9f51 e73c 3084 8f3d 692f 843d
00000120: f0df 173d c742 883c 4970 81bc 4ea6 76bc
00000130: de05 883b 2bca 8a3d 1bec b63c e935 edbd
00000140: 7a01 5cbc 1ccd 16bd 63dc 243d 5123 393c
00000150: 2e16 7fbd 5e92 42bd 2573 91bc 61f3 2bbd
00000160: f86c 1f3c b8bb c63c 04f9 b6bc 71c6 1fbd
00000170: 5981 893c 7411 be3d 78db c43c 8b09 8a3d
00000180: d2b0 a03d 9671 b83d 1c13 18bc 205e f43c
00000190: 4550 28bd 6ab0 dcbc ec82 7ebd 8ac1 91bd
000001a0: 5501 87bd 00fe f2bc fceb abbc c62b 903d
000001b0: d25f 2dbd 989b e13b a7fc ce3c 63e8 c93c
000001c0: 13a7 b93d 15b8 653c 8f7b a33c 84c2 3a3d
000001d0: 4524 b9b8 6f54 90bc deed 10bd a7a8 413c
000001e0: 8be3 b33d 4ef1 f6bc a61d f1bd ff03 78bd
000001f0: 1cb2 9c3c ce61 363c 6e38 603c c39b f2bc
00000200: 8c77 b73b 1baf cdbd f787 ecbd fd02 b7bc
00000210: 335e 01bd 0830 32bd 3e4e cbbc 27f6 43be
00000220: d3ea 13be c27f bf3b a1ce 953d ba88 41bd
00000230: 69d2 c7bd 499d 82bd b10b 17bd 0bf1 2c3c
00000240: 39f0 ad3c ae99 f3bb ddf1 4e3c f165 b53c
00000250: f863 4e3c 498c 50bd b693 36bd 9f0f 613c
00000260: dc23 5bbd 38a2 9cbd 376e e4bc 7253 b4bc
00000270: 1bbc 4f3d 850e 6a3d 1f25 92bd 3c0a babd
00000280: 4b4c fb3c 29ad 86bb e94b acbd 9356 803d
00000290: 1397 7b3d ae27 99bc 3d46 aebd e6bc 72bd
000002a0: 7cb2 cb3d 7b45 453d 45b5 c63c e3f5 8dbd
000002b0: f657 bcbd 9679 1aba 54fa 40bd 6baf 993c
000002c0: 2f84 ae3c 5b40 71bc bbf9 65bd 64dc 21be
000002d0: 3495 d23c 24cc c5bc 7200 64bd 065a b3bc
000002e0: 61f1 babd 896f cf3c 9077 d9bd 4e57 ae3d
000002f0: 974e b2bb 535e 3abd dfab 903c b42a 8f3d
00000300: 1478 e63c 8f06 dabc f4ea ec3c f461 88bd
00000310: d0d9 7dbd b812 003d 078e 02bd e4e5 63bd
00000320: 75e7 ddbc 4485 883d 86c7 cfbd 8549 a0bd
00000330: f1a9 a0bd 64fa f0bc 9241 dc3c 792f 283d
00000340: 060d 2bbd de6c 96bc 1192 8dbd 1523 40bd
00000350: 3b52 183c 0783 473d a37c ca3d 70dc 01bc
00000360: 1859 6abd 1d77 24bc f190 053e 060d 733d
00000370: f23c 05bb dd38 16bd 67af 60bd 46da cbbd
00000380: 9661 42bd fd02 8dbd 6dd1 843c 3e50 153d
00000390: 538d 6e3d c022 0cbd bae4 8abd 0867 29bd
000003a0: 7642 72bd d044 b0bb 71ba 3abe 8fa3 0bbe
000003b0: 78bb 91bd 54e5 9fbc be5c 01bd ff6b 36be
000003c0: 778b b0bd 575f 313c cd0a d6bc 387c 15bd
000003d0: d162 01bd 5414 5fbc d243 1a3d afbc 633c
000003e0: ec27 c23d 5a08 8e3d fdd3 743d d6b5 b03b
000003f0: 1eed d6bc a610 90bd fd29 3eba 91de b1bd
-0.02538492 0.013438353 -0.04405405 0.0023987312 0.031939298 -0.008094631 0.024476402 -0.10317381
0.012151939 0.053710006 0.058698364 0.05286236 -0.14379084 -0.014783898 -0.062011644 0.13108382
0.09450465 0.008429093 -0.099171184 -0.06132267 0.011146742 -0.079189785 0.002261124 0.05308754
-0.017027378 -0.017406164 -0.021010604 0.0033303988 0.05668309 -0.015031658 0.031604882 -0.036061764
0.021132821 0.008047785 -0.009679303 -0.04641577 -0.05283025 -0.08979237 0.034198 0.06052401
-0.01856657 0.018097144 -0.0010698787 -0.011967559 0.071030445 0.039993774 0.09539435 0.043513365
-0.066380985 -0.047440976 -0.070415504 -0.0071331775 0.094261326 0.06912566 -0.0041076443 -0.057128664
0.03597521 0.07486891 0.109918535 -0.08340127 -0.021892617 -0.12468846 0.014067911 -0.015479759
-0.012752021 0.016852286 -0.03477884 -0.057275914 -0.047356065 0.028237162 0.07007635 0.06454355
0.037078798 0.016633404 -0.015800612 -0.015054299 0.00415109 0.06776842 0.02232938 -0.11582548
-0.013428086 -0.0368167 0.04024924 0.011299924 -0.06227701 -0.047502868 -0.0177551 -0.04198015
0.00973057 0.024259433 -0.022335537 -0.039007608 0.01678531 0.09280673 0.024030432 0.067401014
0.07846226 0.0900604 -0.0092819 0.029830039 -0.041092176 -0.02693959 -0.062136576 -0.07116993
-0.06592051 -0.029662132 -0.02098655 0.07039599 -0.04232771 0.0068850033 0.025266958 0.024646943
0.0906507 0.014020939 0.019956378 0.04559566 -8.828243e-05 -0.017618386 -0.035383098 0.011819995
0.08783635 -0.03014436 -0.11773233 -0.060550686 0.019127898 0.011131717 0.013685329 -0.029615289
0.005598968 -0.10043164 -0.11549371 -0.022340292 -0.031583976 -0.043502837 -0.024817582 -0.19136868
-0.14445047 0.0058440873 0.07314802 -0.047249533 -0.097569294 -0.06377656 -0.036876384 0.010555516
0.021232711 -0.0074340915 0.012630907 0.022143336 0.012597077 -0.050915036 -0.044574462 0.0137366345
-0.053500995 -0.07648128 -0.027884586 -0.022012446 0.0507165 0.057142753 -0.071359865 -0.09083983
0.030676028 -0.004109998 -0.08412916 0.06266513 0.061423372 -0.018695679 -0.08509491 -0.05926218
0.099461526 0.048161965 0.024256358 -0.06931665 -0.09196465 -0.00058927515 -0.04711373 0.018760404
0.021303264 -0.014724816 -0.056146365 -0.15806729 0.025705911 -0.024145193 -0.055664487 -0.021893512
-0.091280706 0.025321739 -0.10618508 0.08512746 -0.0054414975 -0.04550011 0.01766008 0.06990567
0.02813343 -0.026614456 0.028920628 -0.06659308 -0.0619753 0.03126785 -0.03187373 -0.055639163
-0.027087906 0.066660434 -0.10145478 -0.07826523 -0.07844914 -0.02941627 0.026886735 0.0410609
-0.041760467 -0.018362459 -0.069126256 -0.046908457 0.009296949 0.04870894 0.09887054 -0.007926092
-0.057213873 -0.010038164 0.13043572 0.059338592 -0.0020330516 -0.036675323 -0.054854777 -0.09953742
-0.047456346 -0.068853356 0.016213143 0.036453478 0.058240246 -0.034212828 -0.067819074 -0.041358024
-0.059145413 -0.005379297 -0.18235184 -0.13636611 -0.07115835 -0.019518532 -0.031582586 -0.17814635
-0.08620351 0.010825953 -0.026128197 -0.036495417 -0.03158838 -0.013615686 0.037662335 0.013899966
0.09480271 0.06935187 0.05977248 0.0053927703 -0.026236113 -0.070344254 -0.00072541815 -0.08685029

conv3.0.bias f4 [10]
00000000: b670 173d 3d34 c3bc fb32 473d b197 00bd
00000010: d114 0abb bb24 5b3b 20e6 38bd 7660 723d
00000020: cc73 ee3a 413e 57bc
0.036972724 -0.02382862 0.048632603 -0.031394664 -0.0021069536 0.003343864 -0.04514134 0.059174024
0.0018192469 -0.013137401
