net/params.pth (torch, 31605 bytes, 14 tensors)

conv1.0.weight f4 [6, 1, 5, 5]
000000 8c 07 c8 bb d3 67 17 3e 98 81 b4 bd 5a 58 a3 bd
       -0.0061044153 0.147857 -0.088137805 -0.07975836
000010 08 b0 db bd 79 b0 9d 3c 75 26 c2 3d 37 0d 5a be
       -0.10726935 0.019249188 0.09479991 -0.21294104
000020 4e 56 2d be e7 44 39 be b1 82 8e bd e4 89 87 be
       -0.16927454 -0.1809269 -0.06958521 -0.2647239
000030 90 0f 3d be 0c ac b6 bd 72 65 43 3e f1 9b 3e be
       -0.18462968 -0.08919534 0.19081667 -0.18614174
000040 d4 ad c2 bd f3 2a cd bd 7d 1f eb 3d aa fa 0c 3e
       -0.09505811 -0.100179575 0.11480615 0.13767496
000050 ee ab 39 be e2 88 d1 3d 3d b8 6b 3d 94 ee 9b bd
       -0.18131992 0.102311864 0.05754875 -0.076138645
000060 1d 31 73 3d f4 85 28 be e2 9f a0 3d 6d 5c 22 be
       0.05937301 -0.16457349 0.07842995 -0.1585557
000070 b3 0d a1 bd 49 6f bf 3b 8b 96 25 bd db a0 8c 3d
       -0.07863941 0.0058421236 -0.040426772 0.06866618
000080 65 4a f6 bc d8 67 c9 3c ee fe 2c be fa ec 2f be
       -0.030064771 0.02458565 -0.16894123 -0.17180243
000090 95 85 93 3d 15 b9 c3 bd c6 07 15 be 14 a6 90 bd
       0.07203213 -0.09556786 -0.14553747 -0.07062927
0000a0 69 08 04 3d 94 e9 13 be 6d 60 1d be 46 df 85 be
       0.032234583 -0.14444572 -0.15368815 -0.26146907
0000b0 8d 94 77 3d a3 d5 93 3d b8 42 57 be d6 a8 a1 3d
       0.060444403 0.07218482 -0.21021545 0.07893531
0000c0 a5 f6 1a 3e fd 05 37 be a5 04 c5 3d 07 41 8a 3c
       0.1513315 -0.17873378 0.096200265 0.01687671
0000d0 2f ba d9 3c b1 e2 19 3e 4c bb 31 3e c9 0c b8 bd
       0.026578037 0.15027882 0.17356604 -0.089868136
0000e0 87 60 a9 3d d5 90 b5 bd 60 d2 ec 3d 3b b2 9f 3d
       0.08270364 -0.08865515 0.11563563 0.07797667
0000f0 fc d1 7c bd 18 76 80 bd 47 db d1 3d 0a ac 83 bb
       -0.061723694 -0.062725246 0.10246902 -0.0040183114
000100 65 16 0b bd 75 08 90 be 84 ab 16 be df 59 8c bd
       -0.033956904 -0.28131452 -0.14713866 -0.06853079
000110 d4 89 a9 bd 57 03 88 be e8 86 58 bd 3c 03 93 be
       -0.08278242 -0.26565048 -0.05286303 -0.28713405
000120 f8 6e a6 be 50 3b 8e be 3a 09 35 bd fd 98 d8 bd
       -0.32506537 -0.27779627 -0.044198252 -0.10576055
000130 df 11 fa bd a5 0d 30 3e e3 86 1e 3d 54 2a 98 bd
       -0.1221044 0.17192705 0.038702857 -0.074299484
000140 45 a6 b5 3d ed 38 ce bd 32 3c d8 3d c9 a6 ee 3d
       0.08869604 -0.100694515 0.10558356 0.116529055
000150 4b ad 0f be 41 0b ca bd 78 0a d9 bd 36 5b 8b bd
       -0.1403095 -0.09865428 -0.105977 -0.068045065
000160 04 76 5f 3e cc 95 4e 3d 47 d3 59 bd cb 48 81 3d
       0.21822363 0.050435826 -0.053180005 0.06312712
000170 e9 b1 4b bc 33 b7 1d 3c be 4f 3a 3e b9 2a 89 bd
       -0.012432554 0.009626198 0.18194482 -0.06697602
000180 2f 24 44 be 98 86 bd bd d2 c2 23 3d ca 66 cc bd
       -0.19154428 -0.09254187 0.039980717 -0.09980543
000190 80 bc a3 bd cb 0e 39 3e 71 d4 3f 3e 07 0f 87 3d
       -0.07994938 0.1807205 0.18733384 0.06594663
0001a0 9e 2a 0c bc de e3 b2 3d 5a 84 ca bd 6c d6 d6 3d
       -0.008555083 0.087348685 -0.09888525 0.104901165
0001b0 12 7e ca 3c 42 92 e4 3c 05 99 85 bd 37 94 1e be
       0.024718318 0.027901772 -0.06523327 -0.15486227
0001c0 3c a9 38 be 86 4b 32 bc e5 7b eb 3c f7 38 81 bd
       -0.18033308 -0.010882264 0.028745601 -0.06309693
0001d0 ef 7a cf bd 2e 67 7a be 61 78 42 be 53 ec 9c bd
       -0.101308696 -0.24453422 -0.18991233 -0.07662263
0001e0 c3 45 3e 3d 92 97 2b 3d c0 77 39 3e a7 c4 04 3e
       0.04645325 0.041892596 0.18112087 0.12965642
0001f0 69 0a 97 bd ab 53 35 be ac d8 6d be 14 63 e2 3c
       -0.073750325 -0.17707698 -0.23227185 0.027635135
000200 d6 dc 5d be 44 2a a1 bc 3f c6 98 bc 18 ab 00 be
       -0.21666273 -0.019673474 -0.018649219 -0.12565267
000210 cb 09 41 bc 78 31 0c 3c 32 d1 5a be bb a6 71 3e
       -0.01178212 0.008556716 -0.21368864 0.23598759
000220 5f 4b 46 bd 28 36 3d bd 83 91 08 be 07 00 8b ba
       -0.048411723 -0.046194226 -0.13336758 -0.0010604867
000230 5f 37 44 3e 93 bf bb 3d 51 82 d9 bd d3 d4 62 bd
       0.19161747 0.09167399 -0.10620559 -0.055378746
000240 9f a9 a7 bd 3d b3 72 3d ca 0a 1c bd 4b 8a 65 bd
       -0.081866495 0.059252966 -0.038096227 -0.05604009
000250 c2 a6 fa bd cb b0 7a 3b
       -0.12238838 0.003825235

conv1.0.bias f4 [6]
000000 24 a3 2d 3c 31 3d b0 bd 32 71 80 3d 42 db d7 bd
       0.010597978 -0.08605421 0.0627159 -0.10539867
000010 b9 fc ed 3c c6 5b 91 bd
       0.029051172 -0.070975825

conv1.2.weight f4 [6]
000000 68 79 70 3f 5e c1 59 3f d1 ab 87 3f f1 d5 7d 3f
       0.9393525 0.8506068 1.0599309 0.99154574
000010 8f 89 84 3f 59 d9 6c 3f
       1.035448 0.92519146

conv1.2.bias f4 [6]
000000 fb 29 69 3d f7 a8 44 bd 33 2b 21 3e c4 57 2b 3e
       0.0569248 -0.0480127 0.15739135 0.16732699
000010 5d f8 3f 3e b4 a6 1d be
       0.18747087 -0.15395623

conv1.2.running_mean f4 [6]
000000 e8 98 aa 3c a7 e5 da 37 33 bd 89 3d 63 da f5 3b
       0.020824865 2.6094565e-05 0.0672554 0.0075028404
000010 4f 5b 3c 3d 41 00 ad 3b
       0.045985516 0.0052795713

conv1.2.running_var f4 [6]
000000 6d ec 31 3b cf a5 cf 35 c2 0c 22 3c a6 94 c4 3a
       0.0027148977 1.5470958e-06 0.009890737 0.0014997914
000010 58 64 d9 3b 08 99 af 3a
       0.0066342764 0.0013397047

conv2.0.weight f4 [16, 6, 5, 5]
000000 e8 55 2d bd 32 5e fe bc a0 08 ce bc 87 eb a1 3d
       -0.042318255 -0.031050775 -0.025150597 0.079062514
000010 71 64 81 3d 2d 9a 24 bd ab 45 e7 3c a2 9f 7a bd
       0.06317986 -0.040186096 0.028231462 -0.061187394
000020 da d0 24 bd a3 6b bb bd c4 dd 6c bd db 60 3b 3c
       -0.04023824 -0.091513894 -0.05782868 0.011436666
000030 bc bc ba bd 4b 6f 11 bd 7f 2e 35 bc 83 9b 9d 3c
       -0.091180295 -0.035506528 -0.011058449 0.019239193
000040 ce 3a a1 3d 61 cb e0 3d 7c 10 6c 3d 5d a6 4f 3c
       0.07872544 0.109762914 0.05763291 0.012673941
000050 5e 80 e8 3b 3a ee fd 3c ac 32 81 3d ae ec 72 3d
       0.0070953807 0.030997384 0.06308493 0.059307747
000060 46 d4 63 3d d6 10 d2 3d 7f cb f3 bc b7 75 39 3d
       0.05562236 0.102571175 -0.02976012 0.045278277
000070 4c dd f2 bb 8d c6 af bd ed c4 5b 3d b9 09 60 3d
       -0.0074116345 -0.085827924 0.0536546 0.054696772
000080 81 98 21 bc 64 43 3a 3b 56 87 b7 bc 36 53 91 bc
       -0.00986302 0.0028421516 -0.0224034 -0.017739873
000090 fc 84 b0 bc 1e c4 a1 3c 1d 8c ff 3a 8d 18 1a 3c
       -0.021547787 0.019746836 0.0019496713 0.009405267
0000a0 6a ca da 3c c9 cd c0 3c 0b 96 cc 3c f3 a3 b1 3b
       0.026707847 0.023535626 0.02497389 0.0054211556
0000b0 1c 47 ae 3a 6c 4b 07 3c 71 b2 8c 39 4f 4b cb bc
       0.0013296339 0.008257728 0.0002683583 -0.024816183
0000c0 2f f0 1f bc bd 43 95 ba f7 e7 f4 bc 70 2d 81 bd
       -0.009761854 -0.0011387985 -0.029895766 -0.06307495
0000d0 7d 0d ab bc 8b b9 96 3d 56 b6 05 3e fd 46 30 3d
       -0.020880455 0.07359608 0.13057837 0.04303645
0000e0 8f 1e 1e bd 41 1f 04 bd af 99 2a 3d 44 fe df 3d
       -0.03860336 -0.03225637 0.04165047 0.10937169
0000f0 a4 e2 9c bd f8 79 8e 3b 52 7d 96 36 fd e3 28 3e
       -0.07660416 0.004348036 4.4849376e-06 0.1649322
000100 63 6d 8c 3b 83 c2 d3 bd b6 04 92 bb 5f cf 9e 3b
       0.004285501 -0.103398345 -0.004456128 0.004846498
000110 cf ab 12 3d 96 09 61 3c e1 89 9a 3d 12 2b ba 3c
       0.03580838 0.013735196 0.075458296 0.022725616
000120 34 5b 4a bd d5 86 ce 3d 44 27 46 3d 5e e2 44 bd
       -0.049403384 0.10084311 0.04837729 -0.048067443
000130 01 6e cd bd 20 5e 37 bd df ad 88 3d 96 83 ae 3d
       -0.10030747 -0.0447675 0.06673788 0.08521192
000140 e0 8d 24 bd 8f d9 2f 3d 59 be 33 3d ed 05 52 3c
       -0.040174365 0.04293209 0.0438827 0.012818796
000150 c6 fe ef bd 08 59 c4 bc 39 0f 63 bd f5 7d b3 bd
       -0.11718516 -0.023968235 -0.05543444 -0.08764259
000160 c3 8a ce bd 7f 4b a8 bd 51 eb 28 bd c8 60 85 bd
       -0.100850604 -0.08217525 -0.04124004 -0.065126
000170 c5 24 a1 bd ee e5 4d 3c bc e0 37 bb 14 f2 a7 bd
       -0.07868341 0.012567027 -0.0028057536 -0.082004696
000180 92 26 03 bd 25 16 42 3d 5d 03 70 3c cc 9f e1 3a
       -0.032019205 0.0473844 0.014649239 0.0017213761
000190 24 e3 74 3d ce 53 e7 3c ba 66 82 3c 70 e3 0c bd
       0.05978693 0.028238203 0.015918124 -0.03439659
0001a0 25 9a 2f bd 7a 54 d0 3d cd c7 2d 3c b7 a4 1a bd
       -0.042871613 0.101723626 0.010606718 -0.03775474
0001b0 ff 94 db 3b 2b c0 88 3d c6 28 74 3c c0 f2 77 bd
       0.0067011113 0.06677278 0.014902299 -0.06053424
0001c0 1b f1 61 3d 8b 84 0f 3c 24 03 a4 3b 56 e3 35 bd
       0.055161577 0.008759628 0.005005257 -0.044406258
0001d0 91 38 c1 bd 61 19 bf b9 98 2e 46 3d fd 89 5f bd
       -0.09434617 -0.00036449268 0.04838428 -0.054574955
0001e0 03 3a 32 bd b1 8a 9e bb d8 61 78 3d fb 63 0e 3d
       -0.043512356 -0.0048383106 0.060640186 0.034763318
0001f0 9b f3 2d bc 9f c2 06 3d b3 89 02 bb 60 1b f8 bb
       -0.010617162 0.03290045 -0.00199185 -0.0075716227
000200 ee b3 22 3c d5 d6 5f 3c 53 1b b4 3d 14 e0 99 3d
       0.009930594 0.01366206 0.08794274 0.07513443
000210 5a 73 cf 3b fe 2c 1f 3e bf 6d a7 3d 60 6a 38 3d
       0.0063308896 0.15544507 0.08175229 0.045023322
000220 8c 39 de 3b db 83 4a bc 4d 0c 92 3d aa 1d 95 3c
       0.0067817625 -0.012360538 0.071312524 0.018202621
000230 06 03 84 3c 9b 1f 09 be 26 ad c6 bc 71 83 3d bd
       0.016114723 -0.13390963 -0.024252485 -0.04626793
000240 ff 5d 8e bc b7 4c 7d bc 2f 30 21 bb 41 74 24 bd
       -0.017378805 -0.015460185 -0.002459537 -0.04014993
000250 09 1b 4b 3d ee 51 35 bc b9 51 e9 3c b2 20 4e 3d
       0.04958633 -0.011066897 0.028481351 0.05032415
000260 e4 fb af 3d dc e5 40 3b 0f 11 08 3d 8f 0b e0 bc
       0.08592966 0.0029433882 0.033219393 -0.027349262
000270 5a 17 9e 3d ad 45 8c 3b dd 96 75 3d 6f 3d 31 3d
       0.07719298 0.004280767 0.059958328 0.04327148
000280 26 55 ac 3b 1d b9 5b bd 93 6d ad bc e2 f1 01 bd
       0.005259174 -0.053643335 -0.021170413 -0.031724818
000290 c3 a6 d2 3b 18 10 46 bd db 19 e4 3c 48 f2 96 bd
       0.006428571 -0.048355192 0.02784436 -0.0737043
0002a0 fe f5 32 bc 98 d2 6d 3b af 06 0b bd c4 2d 92 3c
       -0.010922907 0.0036288854 -0.03394192 0.017844088
0002b0 10 52 12 bc 20 b0 27 be f7 ae d6 bd 60 28 27 3d
       -0.008930698 -0.1637578 -0.10482591 0.04080999
0002c0 7f a2 0f bd ab 9c 8a bd a9 47 3e 3c 15 1b fe 3c
       -0.035067078 -0.06768163 0.011613765 0.031018773
0002d0 32 ef 06 3d dc c5 bb 3c 05 08 81 3c 94 cd 52 bd
       0.03294296 0.022921495 0.015750894 -0.051465586
0002e0 02 a0 eb ba 4e 84 f9 3c ac d9 a6 3d a8 5f 5e 3d
       -0.0017976763 0.030458596 0.08146986 0.054290444
0002f0 96 4d 9b 3d 92 aa 3a 3d c5 f1 cd 3b 9b c1 72 3d
       0.07583158 0.045572825 0.0062849247 0.059266668
000300 53 4a b8 bc 75 fe 12 3d 2c 6d 09 3d d0 14 2a 3d
       -0.022496378 0.0358872 0.03355138 0.041523755
000310 6f 0a 9e bc 70 50 10 3e 1b f5 27 3d 63 ae 94 3d
       -0.019292085 0.14093184 0.041005235 0.07259824
000320 06 d8 a4 3d 2e 72 bb bd d0 3c 1a be 7a 13 57 bc
       0.08049016 -0.091526374 -0.1506226 -0.013127202
000330 32 c2 5f bb f8 37 bb 3d d5 cf 96 bd 92 ff 47 be
       -0.003414285 0.091415346 -0.073638596 -0.19531086
000340 01 c6 57 bb e6 93 2a bd 26 49 08 3d 95 e3 68 bc
       -0.0032924416 -0.041644953 0.033272885 -0.014214416
000350 ae cd 35 be 4a 0b 00 bc bb cd 85 bb dd 6e 91 bc
       -0.17754242 -0.0078151915 -0.004083363 -0.017753059
000360 e7 8c a5 3d b6 69 61 3c de 62 07 bc 3a 2c 84 bb
       0.080835156 0.013758114 -0.008263318 -0.0040335925
000370 2d a6 96 bd 54 d3 12 bd 6e 48 0c 3b 66 ec 6b 3d
       -0.07355914 -0.03584607 0.0021405476 0.057598494
000380 63 59 12 bb 0e d1 09 3d 28 44 89 3d cc 07 87 bc
       -0.002233111 0.033646636 0.06702453 -0.01648321
000390 85 68 cf bd 19 90 8b 3c f3 d9 57 3d 77 7b c2 bc
       -0.101273574 0.017036485 0.052698087 -0.023740513
0003a0 2f 9f a1 bc 8d b9 ec bc a9 32 42 bd 8b bb 36 3d
       -0.019729225 -0.028897071 -0.047411595 0.04461245
0003b0 73 15 f0 3c 69 fc df bb 84 36 45 bc 2a 5e c1 bc
       0.029307103 -0.0068355096 -0.012036923 -0.023604471
0003c0 60 10 67 bb dc f3 b3 bb 0f 10 a0 3d 43 cb b0 bd
       -0.0035257563 -0.005491717 0.07815563 -0.08632519
0003d0 06 5e d9 3d fc 12 9c bc 1c a9 6b 3b 75 60 4c 3a
       0.10613637 -0.019052021 0.0035958951 0.00077963556
0003e0 de b3 fd 3b 0e ac 4d 3c b4 dc 11 3c e8 49 32 be
       0.007742389 0.012553228 0.008902717 -0.17411005
0003f0 61 67 51 be b7 c6 e0 bb e5 67 23 bc 61 7b 60 3d
       -0.20449592 -0.006859626 -0.009973501 0.054805163

conv2.0.bias f4 [16]
000000 3a 9b 6b be 34 be 2f be 3d 6d 0e be 59 22 03 be
       -0.23008433 -0.171624 -0.13908859 -0.12806071
000010 d0 a4 aa bd 04 09 60 be 09 38 f8 bd 5e ba 35 bd
       -0.08332217 -0.21878439 -0.12120063 -0.044367187
000020 ab b8 de bd 60 6d 69 bd 87 c7 1d be 35 3c 21 bd
       -0.10875066 -0.056989074 -0.15408145 -0.03936406
000030 21 60 08 be 19 00 7b be 3f fa 2e be 0b da 31 be
       -0.1331792 -0.24511756 -0.17087649 -0.17368333

conv2.2.weight f4 [16]
000000 9f 06 a3 3f 58 b7 a5 3f 32 37 9a 3f c3 99 9b 3f
       1.2736396 1.2946577 1.2048094 1.2156299
000010 f9 ad 9b 3f fb 8e 9b 3f c9 3e 98 3f 3d e9 93 3f
       1.2162467 1.2153009 1.189416 1.1555554
000020 71 a9 9a 3f 00 be 9a 3f 1c 18 9a 3f c0 ed 9a 3f
       1.208296 1.2089233 1.2038608 1.2103806
000030 e3 ab 98 3f 38 8e 99 3f fa ee 9b 3f f1 7a a5 3f
       1.1927456 1.1996527 1.2182305 1.2928144

conv2.2.bias f4 [16]
000000 ac 73 ee bd bf 53 78 bd d4 e9 fd bd ed bc f5 bc
       -0.116431564 -0.06062674 -0.12398115 -0.029997313
000010 83 69 86 3b 22 be b6 bd 55 b5 01 bd 16 52 cf bd
       0.0041019334 -0.08922984 -0.031667072 -0.101230785
000020 e3 69 34 bd 55 a6 89 bc 87 c1 8c bb a9 a8 23 3d
       -0.044046294 -0.016802946 -0.004295531 0.03995577
000030 10 4d 9f bd 73 0e 19 be a2 5e 9a bd 0d c0 6a bc
       -0.077783704 -0.14946918 -0.07537581 -0.014328015

conv2.2.running_mean f4 [16]
000000 d0 35 6f 3e 73 f2 43 3e 1c 8a e5 3e 46 56 3c 3e
       0.23360372 0.19135456 0.44831932 0.18392286
000010 e5 f9 49 3e 7a de 02 3e 0b d3 3c 3e 85 8f 45 3f
       0.19724233 0.1278018 0.18439882 0.7717212
000020 e5 61 41 3e 58 e6 9c 3e 45 6f 78 3e 33 07 d4 3d
       0.18885 0.30644488 0.24261196 0.10352936
000030 5a 09 65 3e 4b 03 35 3e ee f9 85 3e 49 ed 1b 3e
       0.22366849 0.17677037 0.26167244 0.15227236

conv2.2.running_var f4 [16]
000000 0e 8a 83 3e 03 51 4a 3e 3e 7f ff 3e 1a b0 29 3e
       0.25691265 0.19757466 0.49901766 0.16571084
000010 de eb 3d 3e 93 78 db 3d 3f 38 4b 3e 11 ac 42 3f
       0.18547007 0.10716357 0.19845675 0.760438
000020 c9 ed 4f 3e cb 0a aa 3e 36 ac 8b 3e 83 55 ae 3d
       0.20305552 0.3321136 0.27279824 0.08512404
000030 3f f2 71 3e a1 42 2f 3e 21 cd 88 3e 50 06 27 3e
       0.23627566 0.1711526 0.26719 0.16311002

conv3.0.weight f4 [10, 16, 5, 5]
000000 30 55 eb 3c 9d 1e 07 bd 9c 67 b1 bd eb 52 e5 bd
       0.028727144 -0.03298818 -0.0866234 -0.11197456
000010 ad 2e 88 bd 5f 78 e2 3b d4 e0 94 bd 38 91 22 3d
       -0.06649528 0.006911322 -0.07269445 0.039689273
000020 9b 46 6d bd a5 1d 08 3b 46 8e e4 bd 0f 3e a4 3c
       -0.057928663 0.0020769623 -0.11159949 0.020049123
000030 08 98 a0 3d 04 22 aa ba 51 2e 64 bc d8 ff 88 bd
       0.07841498 -0.0012980108 -0.013927058 -0.06689423
000040 0c c7 e2 bd 90 d4 9b 3d 5a f4 9b 3c 5c 0c 88 bd
       -0.110731214 0.076089025 0.019037414 -0.06642982
000050 50 b8 5a bd d3 9c 2a bd de 75 0c 3d 68 97 c5 3c
       -0.05339843 -0.041653465 0.034292094 0.024120048
000060 b1 0e d9 bd 83 58 6e bd b2 fe f9 bc 8b 80 4d 3b
       -0.10598505 -0.05818988 -0.030516956 0.0031357135
000070 2e 36 7f bc 88 cf 0c bc 64 aa 44 3c cb 2e cb 3c
       -0.015576882 -0.008594401 0.012003515 0.024802586
000080 ae e7 bb 3b e2 4c d9 3a 43 88 80 3d 4d e6 2c 3d
       0.0057344055 0.0016578699 0.0627599 0.04221182
000090 9b 9d 0d bd 55 35 b1 bd 76 4f 1b bc 49 54 e8 3d
       -0.034574132 -0.086527504 -0.009479394 0.11344201
0000a0 5d 69 98 3d 65 9a f7 3d e2 05 fd 3c 34 66 95 3c
       0.074419715 0.12089995 0.030886594 0.01823721
0000b0 29 09 ad 3d 01 76 f3 3d df be dc 3d dc 36 bf 3d
       0.08449013 0.11887742 0.10778593 0.093366355
0000c0 99 90 93 bd 30 0e fb bd 3b 49 0d bd 8b 10 21 ba
       -0.07205314 -0.122585654 -0.034493666 -0.00061441277
0000d0 54 9e 62 bc bb b8 1c bd f2 6b 79 bd 06 c4 a2 bd
       -0.013831694 -0.03826211 -0.06089396 -0.07947545
0000e0 81 64 60 bc 8b 99 db bc f9 fa 4c 3c 7b 5f d0 3d
       -0.013695837 -0.026806613 0.012511008 0.101744615
0000f0 0d 42 8c bd dc f4 a4 bc c1 51 75 3d 44 b7 a6 bb
       -0.06848536 -0.02013629 0.05989242 -0.005087765
000100 9e 9d db 3d 30 80 ce 3b 8b 6a 6f bd 5c bd 81 bd
       0.107234225 0.0063019022 -0.058451217 -0.063349456
000110 9d 61 a2 3d e0 c2 d3 3d 98 53 85 3d 1f 57 21 bd
       0.079287745 0.10339904 0.06510085 -0.039389726
000120 ca d3 b8 3d 58 1a 76 bd 9c 7f 5b 3d a4 46 05 bd
       0.090247706 -0.060083717 0.053588495 -0.03253807
000130 6b be 16 3c a2 0a 0e 3d 15 54 f5 bc 87 74 0e be
       0.009200673 0.03467811 -0.02994732 -0.13911639
000140 36 7c e6 bd 12 da 9b ba 96 a2 ec 3c 83 40 1b bc
       -0.1125416 -0.0011890552 0.02888612 -0.00947583
000150 f7 3b 6a bd 04 15 8f bd 3f 3d dd bc 9c dd 50 bd
       -0.057186093 -0.0698643 -0.027006743 -0.050992593
000160 ff dd 56 bd d6 e1 64 bd 24 76 0c bd a9 db 0c bc
       -0.052457806 -0.055879436 -0.034292355 -0.008597293
000170 02 3b 3c bd 2f cb 6d bd 7f da 11 be 20 f3 f0 3c
       -0.04595471 -0.0580551 -0.14243506 0.029412806
000180 3c ac 91 bd a5 3c 05 be fd 54 16 be 9b 8e 30 bd
       -0.07112929 -0.13011415 -0.14680858 -0.04310475
000190 03 1a 81 3c 66 55 f8 3c d6 b9 28 bd 70 b0 8a bd
       0.015759474 0.030314159 -0.041192852 -0.06771934
0001a0 c9 31 81 3d ef 5d ee 3c 44 d3 6f bc 52 f9 8f bd
       0.06308324 0.029097525 -0.014637772 -0.07029976
0001b0 13 b8 cb 3c 96 e7 c2 bc 3a 5d 04 be b4 6a 7a bd
       0.024868047 -0.02379207 -0.12926188 -0.061136916
0001c0 1a 3a 6e 3d 66 09 a5 3c c6 5e 1f 3d b0 47 3f bd
       0.05816088 0.020146083 0.038908742 -0.046699226
0001d0 cc bc c3 bd b5 ad b1 bb 14 7e 39 bd ad 26 13 be
       -0.095574945 -0.005422319 -0.045286253 -0.14370222
0001e0 da 17 17 3d af d7 c6 3c 07 80 05 bb 4f 9e 98 bc
       0.03688798 0.024272768 -0.00203705 -0.018630175
0001f0 b5 c5 08 bd ed 50 54 bd b2 96 8a bc 43 13 89 3c
       -0.033391673 -0.05183499 -0.01691756 0.016732818
000200 a4 c1 5c bc ff 6c 59 3d ea af 84 3c b4 b4 d3 3b
       -0.013473902 0.053082462 0.016197164 0.0064607505
000210 ef 00 9b 3d 8b 60 20 bd e8 12 15 bd 24 46 52 bc
       0.075685374 -0.03915457 -0.036394984 -0.012834106
000220 a4 a0 07 bd 81 ee f5 bd a6 3f 53 3c 6c 6a c7 bd
       -0.033112183 -0.12008382 0.012893593 -0.09737095
000230 bb b5 95 bd 90 37 db bd 39 e3 a6 3c ab 47 aa 3c
       -0.07310053 -0.10703957 0.02037202 0.020786127
000240 a9 eb a2 3b 2b 5a 80 bd 08 3f be bc 88 f6 b0 bb
       0.0049719405 -0.06267198 -0.023223415 -0.0054004826
000250 39 41 0c 3d 39 d3 bb 3d 45 51 b0 bd c3 de 96 3d
       0.03424189 0.09171147 -0.08609251 0.07366707
000260 05 e8 cd 3d f6 bb 87 3c bc 3a d8 3c 72 95 0e 3c
       0.1005402 0.016569119 0.026395194 0.008702623
000270 11 50 20 3c 11 b3 af bb 38 18 e2 bc 67 82 2a 39
       0.009784714 -0.0053619226 -0.027599439 0.00016261042
000280 b1 42 46 3d 76 a0 01 3d a4 e4 d5 3a 33 c7 3b bd
       0.048403446 0.031647168 0.001631875 -0.045844268
000290 d5 89 9a bd 29 22 44 3d 9c 09 51 bc 7f ee d4 bb
       -0.075458206 0.04788414 -0.012758639 -0.0064981575
0002a0 82 0d 05 be 9e ba 24 bd ce 04 ab bd 07 b7 59 bd
       -0.12993434 -0.040217035 -0.08350526 -0.053153064
0002b0 02 39 16 bd 25 e3 d9 3b e8 c3 e4 bc 25 ea f5 3b
       -0.03667546 0.006649392 -0.027925447 0.007504719
0002c0 b0 3d 5e bd 6c a0 14 3d bf ef b2 bd 16 0f b1 3b
       -0.05425805 0.036285803 -0.08737134 0.0054034097
0002d0 c6 63 74 bc 41 07 54 3d 22 7a 17 3d ff 74 26 bd
       -0.014916366 0.05176473 0.03698171 -0.04063892
0002e0 c6 97 a0 bb dd 96 a0 bd 7b 24 f4 bc c4 8f 0b bd
       -0.0049009053 -0.07841275 -0.029802551 -0.034072652
0002f0 c1 81 5e 3d b6 15 27 bd ad 32 30 bd 28 67 91 bd
       0.05432296 -0.04079219 -0.04301708 -0.070997536
000300 98 0a 0d 3d 03 21 37 3d a9 7a a6 3c 81 69 01 3d
       0.03443393 0.044709217 0.02032216 0.031594757
000310 5d 79 fa bc 61 21 db 3c f5 7f 5e 3c e3 30 a0 bd
       -0.030575449 0.026749315 0.013580312 -0.078218244
000320 92 68 7d bc 05 4a 3c bd 1a 94 03 3d 4d 28 5b 3d
       -0.015466826 -0.045969028 0.032123663 0.05350523
000330 2c 68 25 3b 78 03 12 3d 11 c0 9e 3c dd 9a 4c bc
       0.0025239093 0.03564784 0.019378694 -0.012488094
000340 51 31 1d 3c 27 a2 43 3d 11 c8 98 3d 01 a1 d1 bc
       0.0095942775 0.047762062 0.07460035 -0.025589468
000350 cf 26 a7 bd b2 46 d7 bc c4 a2 85 bd 52 c0 b1 3d
       -0.08161699 -0.026278827 -0.06525186 0.0867926
000360 dd 64 22 bd 41 c1 9b bd 32 d0 3c bd 15 9e 72 3d
       -0.039646972 -0.0760522 -0.046096988 0.05923279
000370 44 0a 78 3d c4 fa e9 bb 17 b4 34 bd ca 38 ab 3c
       0.060556665 -0.0071404893 -0.04411706 0.020901103
000380 2e 57 60 3d 7e 7e fd bd b1 4e d4 bd 7c 12 17 bd
       0.05477064 -0.12377642 -0.10366572 -0.036882862
000390 e9 56 0c bd 57 31 47 bd 28 83 9a bd 4f 7f 6d bc
       -0.03426257 -0.04863104 -0.07544547 -0.014495685
0003a0 e6 1f a3 3c d7 47 53 3d 5c c5 f5 bc d2 75 40 bd
       0.019912671 0.051582184 -0.030001335 -0.046987362
0003b0 e1 34 cb bd d6 fc 92 bd 46 46 31 3d 01 9c 99 3c
       -0.09922195 -0.07177131 0.04327991 0.018751146
0003c0 89 2f 70 3d 56 76 17 bd 1c 92 9c bc 84 c8 7a bd
       0.058639083 -0.03697809 -0.01911264 -0.061226383
0003d0 58 4e 6b bd 4b d9 39 3d 97 ca b8 3d 61 eb e8 3d
       -0.05744776 0.045373242 0.09023016 0.1137302
0003e0 78 1f 5b 3c f9 f7 27 bd d9 c0 4f 3d 93 30 15 3b
       0.013374202 -0.04100797 0.050721023 0.0022764548
0003f0 a6 5c 7f bd e5 7a 7d bd 64 3b 82 3c 60 95 22 3d
       -0.062344216 -0.06188478 0.01589746 0.039693236

conv3.0.bias f4 [10]
000000 7d f1 dc 3a 76 fb a0 3d dd 80 a7 bc eb 2d 11 bc
       0.0016856637 0.07860462 -0.020447189 -0.008861045
000010 17 fc 25 bd c7 97 78 bc 32 13 0f bc cd a4 a5 3d
       -0.040523615 -0.015172905 -0.008732604 0.08088074
000020 ab c8 79 bc 6a 59 82 bd
       -0.015245597 -0.06364711
