net/params.pth (torch, 31605 bytes, 14 tensors)

conv1.0.weight f4 [6, 1, 5, 5]
00000000: e846 87bc 9f8c ce3d e3a7 d33d f10c e5bd
00000010: cda3 3dbd 11e1 5b3e dccc eabc 1919 4dbd
00000020: 0f80 58be e19d 2f3e a3b7 633e 515e 243c
00000030: 9e1a 1abe e251 9b3c 3d5a 75bd 8f6c b53d
00000040: cdb1 e8bc b646 77be e5ef 91bd 7fc1 293e
00000050: 3970 d5bd 9195 503d 0ca9 0dbe eb60 65bd
00000060: 8ece 23bd 770c af3d 1240 003e 1b39 453e
00000070: f4f0 733d a2b9 0c3e 78be b63d a65b f43d
00000080: b5fd e33d 3651 183d 9a2a 94bc f515 dabd
00000090: acd4 45be a76a 6e3d a6d3 713d cc68 983d
000000a0: 2647 fcbd 480b b93b 2fea 83bd e64c 61bb
000000b0: 83b2 1c3d 3f4a e13c a1ba 0fbe 9680 2dbe
000000c0: d280 d33d bfc2 0fbe ed61 dcbd 67b6 1a3e
000000d0: 8bc2 d83c 5975 ae3c 8988 b43d f0ca d2bd
000000e0: dd3a 7cbe 7115 29be 6875 89bd b3f5 85bc
000000f0: 63e2 2b3c 833b abbd 9557 083b 216d 61be
00000100: 6945 dabd 9202 163d fdd4 c7bb 6298 a2bd
00000110: 474b 1bbe bc1f 8c3d 2cae 133d a801 ec3d
00000120: 5b27 b43d 4500 5dbd 0a28 d6bd d34d c9bd
00000130: dbfe e4bc 6edd 9abd 7c29 e13d aaaa a7bd
00000140: 7bdc be3d 890c 5dbc bfac 073e 8135 b33d
00000150: 6b65 f5bc 5fed fb3d 2f10 253d a429 ec3c
00000160: 99bb 8b3e dc57 01bc f10e 0cbe b4a0 bcbd
00000170: 9669 13be 11a4 8d3d 66d2 273e f8b8 13be
00000180: 8759 6cbd fe74 65be 7ba8 9bbd 1338 05bd
00000190: 909d 02be ecf7 523e 00a8 053e b2f8 a03c
000001a0: 389a b83d c30c c83c 146d cf3d df6e 6ebd
000001b0: 290c 2abe 751c acbc 21aa fa3d 8b2d 65be
000001c0: e41a d8bd 2582 a43d cecc d3bd 494c 7e3b
000001d0: 222b 5ebb 004e 25be 5b32 2ebd 28e2 4d3d
000001e0: 52ec 66be 14ae f63d 1f1b 5dbd 2e01 303e
000001f0: 4f0b be3d fb38 a7bd f9af 583c 13dd 13bd
00000200: 8d49 70bd f066 063c 4b6c 84bc 679b 3bbc
00000210: d3a8 0b3e 6638 093d d0c8 bcbc 8f71 35be
00000220: 8154 5ebe f249 2f3e 8b43 f73d 2219 233e
00000230: 64db 9b3c d1c1 733c bef2 863d 5896 523e
00000240: 111e 1f3d 5b31 08be 542a 4bbe 53c1 bb3d
00000250: 6a6e ab3d 3ecf c73d
-0.016513303 0.10085415 0.10334756 -0.11184109 -0.04629879 0.21472575 -0.028662138 -0.050072763
-0.211426 0.1715007 0.2223802 0.010032252 -0.15049216 0.018959943 -0.05990051 0.088585965
-0.028405095 -0.24148068 -0.071258344 0.16577719 -0.104217954 0.050923888 -0.13834018 -0.05600063
-0.039991908 0.08547299 0.12524441 0.19260065 0.059555963 0.13742688 0.08923048 0.11931543
0.11132375 0.037186824 -0.01808672 -0.10648719 -0.19319409 0.05820718 0.059039734 0.074418634
-0.12318258 0.005647097 -0.06441151 -0.003437811 0.03825618 0.027501224 -0.14036037 -0.16943583
0.10327305 -0.14039133 -0.10760865 0.15108643 0.026459953 0.02129619 0.088151045 -0.102926135
-0.2463183 -0.16512085 -0.067118466 -0.01635251 0.0104909865 -0.0836096 0.0020804156 -0.22014286
-0.1065777 0.036623545 -0.006098388 -0.07939221 -0.15165435 0.0684199 0.036054775 0.115237534
0.08796569 -0.053955335 -0.104568556 -0.09829297 -0.027953556 -0.075617656 0.10994241 -0.081868485
0.09319397 -0.013491758 0.13249491 0.087504394 -0.029955586 0.12301134 0.040298637 0.02882845
0.27291563 -0.007894482 -0.13677575 -0.09210339 -0.14395747 0.06916059 0.16388854 -0.14426029
-0.057702567 -0.2240791 -0.076004945 -0.03252418 -0.12755418 0.20602387 0.13052368 0.019649837
0.0901379 0.024420148 0.10128227 -0.058211204 -0.16606201 -0.021009663 0.12239481 -0.22380655
-0.10552004 0.080326356 -0.10341798 0.0038802794 -0.003390022 -0.16143036 -0.04252849 0.050264508
-0.22551087 0.120449215 -0.053980943 0.1718795 0.09279501 -0.08165165 0.013225549 -0.036099505
-0.058663893 0.008203253 -0.01616492 -0.011450625 0.1363862 0.03350105 -0.023044974 -0.177191
-0.21711923 0.17118052 0.1207343 0.15927556 0.019025512 0.014877752 0.06589268 0.20565164
0.038847033 -0.13300078 -0.19840366 0.09167733 0.08370669 0.09756325

conv1.0.bias f4 [6]
00000000: b6eb fb3d ed16 163d a4b0 b43d f5a2 3dbd
00000010: 0ac8 1c3e b201 01be
0.12300818 0.036642957 0.08822754 -0.046297986 0.15310684 -0.12598303

conv1.2.weight f4 [6]
00000000: cb5d 833f 101c 853f 254f 803f ba2e 7b3f
00000010: 0b3e 6e3f 1f9d 793f
1.0262998 1.0399189 1.0024153 0.98118174 0.9306342 0.9750537

conv1.2.bias f4 [6]
00000000: 4120 363e 46ef 033e 8d79 4e3d f524 193d
00000010: 1e19 b83d f407 4b3e
0.17785741 0.12884244 0.05040889 0.03738876 0.08989166 0.19827253

conv1.2.running_mean f4 [6]
00000000: fd08 093e 1b0c f43d 53ae 813d fb38 c63c
00000010: 62b7 213e a3bf 7e3d
0.13382335 0.119163714 0.06332078 0.024197092 0.15792611 0.062194478

conv1.2.running_var f4 [6]
00000000: 86e5 743c b1fa 133d 5882 2d3b dd54 ec3b
00000010: ac86 243c 1965 ce3c
0.014947301 0.03612775 0.0026475396 0.007212265 0.010041874 0.025194691

conv2.0.weight f4 [16, 6, 5, 5]
00000000: 70db 023d 4add c43b ad53 9d3d 87db b73d
00000010: ea29 d93c 36cb 603c e0e0 623d b74f 6cbd
00000020: 731a 743d 2877 f3bc 5d0c f7bd 1a0e 83bd
00000030: ab42 ebbd d8ef 13bc 9e88 83bc a148 103b
00000040: b617 1abd f0bf 7cbd 85f5 b0bc 0b97 febc
00000050: 3655 473d ac18 e43d 5458 723c a1e0 6a3c
00000060: 797d 413d 0fd7 0a3c 0b2e ad3d 505c 0c3d
00000070: 5e6b 0c3c ac50 043d bcba 8b3d 0fc1 963d
00000080: 409a 643d 6e4d 3d3d bbc3 a4bd ecc0 9bbc
00000090: 44ef 2cbd 266a 1c3d 9f8b b2bc 8f6a a0bd
000000a0: 980a 97bc 9474 d6bc 00ec 053d f792 6f3d
000000b0: 34a1 8bbb fae5 563d 8554 4ebd a113 19bd
000000c0: 3fbf 5dbd 6223 353d 4ca7 733c 6ced 083d
000000d0: 512a 213d c51b 7a3a 26d6 a7bd 8fc4 aabc
000000e0: 23da 9a3c 2bef 333c 6fc7 373d ee93 4bbd
000000f0: 2d81 5d3d daec 033d 5559 3e3d 7d27 fb3c
00000100: 7337 453d 52d5 adbd 266f 483d 8d3b bcbc
00000110: 0ba8 243d 5bfb b3ba c9a8 fabb b466 b9bd
00000120: 0a8d febd c382 64bd 8e1c 56bd f2f3 28bd
00000130: 3572 a53d 32a0 5bbd 9daa b5bc fea6 613d
00000140: ca14 edbb ef1b d03d bda2 a53d a7c7 873d
00000150: d630 d6bd 5d23 853d 6656 18bd 276b 733d
00000160: 7780 a53d 84c7 3dbd 93f4 cebc 7370 d33c
00000170: 78ca 7cbc 231f 6e3c b587 513d 501e 85bd
00000180: 1303 bdbd 94d3 c0bd 7391 d3bd 6bc9 ac3d
00000190: f2d5 16bd 0cbc 003d af1e ffbc 0bfa d9bb
000001a0: ad9f 17bd 6383 04bd ec93 98bc 7a16 08be
000001b0: e17b 363a a534 f3bc d70d e83b 4241 74bd
000001c0: 4a0b b5bd ef5e 01be 5980 093d d367 a53d
000001d0: 27fe 4b3d 8686 45bc e225 89bd cb34 8dbd
000001e0: 2c8c 123e 8c75 86bc 1727 c13b 5c12 363c
000001f0: e03c cbbc 4562 b7bd f239 e83a c79b e9bc
00000200: 5ef4 9c3d 844a 22bd 3279 37bd b046 86bd
00000210: d1f2 703c 67cb 0dbd d4e4 9b3c 8504 803c
00000220: b1ce 48bb 1a27 b13c 9c57 1d3d 289f 3e3d
00000230: 08c3 fcbc 7d97 f33c 58c9 6d3b 0c1e bbbc
00000240: a7fe 063b aaac 79bd 72dc 74bd 66e9 113d
00000250: e15e 32bd 2d34 87bc f1e8 e6bc 4ac7 d7bc
00000260: 0f4b 38ba 8255 1bbd 3377 693d 46dc 753d
00000270: 938c 0f3c dd8e 313c 0076 75bd a2ac 493d
00000280: ba30 a73c dcfe 21bd d79c 813c 41d4 70bd
00000290: 0e8c 48bd 96b7 b8bc 81c4 263c 41f4 84bd
000002a0: cb79 09bd 849a 7a3d a373 78bd 2b03 38bc
000002b0: 05b7 123d 7ba0 07bd 51f0 19bd 1f5c 4dbc
000002c0: 1fb0 e7bd b8c7 1ebd ff04 eabd c319 1dbe
000002d0: 9a55 8fbc 9f9d 3c3d 52bd 4dbc da18 0fbe
000002e0: 792e d0bd 085e 5cbd 2c1f 593d 1bce 3f3d
000002f0: 030c 28bd 7ea0 1cbd 77c4 0d3d 4d6c c13d
00000300: 02f1 843d ff67 933d 5a9f 0f3d a6e1 d73d
00000310: 4faa b03d ee82 78bb 48d1 ed3c f37d 123a
00000320: 68eb b53b 14ea 133c 2c02 98bc 18b5 5b3d
00000330: d197 b8bc 4805 99bd 162c 44bd 966f 81bd
00000340: ca0c 133d 661f 50ba 9653 513d 1eee 5b3d
00000350: 00df 78bc bb03 7b3d 4f6d aebc f50b a3bd
00000360: 78ca febc 2edd b4bd aae4 a53c a74b 4cbc
00000370: d653 ad3d ca21 cdbc beb6 6438 d483 d83c
00000380: 1c51 a73d f569 92b8 e7ca 52bb 1b90 d9bc
00000390: cc8a 353b 5c33 b2bd f41b 9a3d 0ae9 2cbc
000003a0: fe5d b03d 8aff a9bd bc57 b0bd 654e 9ebd
000003b0: 218b 603c 99e0 63bb 6a36 433d b500 c93c
000003c0: 85a6 ac3d 831f b0bd c2f7 883d cff0 1bbd
000003d0: 449b 463d 5749 4b3b a6e4 cbbc 0221 e43c
000003e0: ec8d 40bd e5d5 06bc 0414 d4bb aad1 bbba
000003f0: 50df 79bd 0ffb a73c dfa8 dabc 5580 51bd
0.031947553 0.006007825 0.076819755 0.089774184 0.026509244 0.013720324 0.05539024 -0.05769321
0.059595536 -0.029719904 -0.12062905 -0.06399174 -0.11487325 -0.009029351 -0.016056355 0.0022015946
-0.03762027 -0.061706483 -0.021601448 -0.031077882 0.048665248 0.11137518 0.014791567 0.014335782
0.0472388 0.0084741255 0.084560476 0.034267724 0.00857052 0.032303497 0.06822726 0.07361042
0.055811167 0.04621642 -0.08045145 -0.01901289 -0.04222037 0.03818717 -0.021795092 -0.078328244
-0.018437669 -0.026178636 0.03269577 0.058489766 -0.0042611603 0.052465416 -0.050373573 -0.037372235
-0.054137465 0.044223197 0.01487143 0.03342955 0.039346997 0.0009540881 -0.081951424 -0.02084568
0.018902844 0.010982315 0.04486793 -0.049701624 0.05407827 0.0322083 0.046471912 0.030658478
0.048148584 -0.08487953 0.048934124 -0.022977615 0.04019932 -0.0013731526 -0.0076495153 -0.09052792
-0.12429245 -0.055788767 -0.052273326 -0.04124827 0.08078424 -0.05361957 -0.022176081 0.055090897
-0.0072351443 0.10161578 0.080876805 0.066298775 -0.104585335 0.06500886 -0.03719177 0.05942836
0.08081143 -0.04633285 -0.025263106 0.025810456 -0.015429132 0.014533791 0.05115481 -0.06499922
-0.09229102 -0.09415355 -0.103304766 0.08436855 -0.036825128 0.031429335 -0.03114256 -0.006652122
-0.037017513 -0.032351863 -0.018625222 -0.13289824 0.00069612084 -0.029688189 0.007081728 -0.059632547
-0.08840044 -0.1263387 0.033569667 0.080764435 0.049802925 -0.012055999 -0.06696679 -0.06894835
0.14311284 -0.016413473 0.0058945525 0.011112776 -0.0248093 -0.0895429 0.0017717464 -0.028516663
0.07663797 -0.039621845 -0.044793315 -0.06556451 0.014706329 -0.034617808 0.019030012 0.015627155
-0.0030640776 0.02162509 0.03841363 0.046538502 -0.030854717 0.029735321 0.003628334 -0.022841476
0.0020598562 -0.06095568 -0.059780546 0.035622977 -0.043547515 -0.016504372 -0.028187247 -0.026340146
-0.00070302276 -0.037923343 0.056998443 0.060024522 0.008761543 0.010837284 -0.059926987 0.0492369
0.020408977 -0.039549693 0.015821857 -0.05879617 -0.04896169 -0.022548478 0.010178686 -0.064919
-0.033563416 0.061182514 -0.060657155 -0.011231224 0.035819072 -0.03311203 -0.0375827 -0.01253417
-0.11312889 -0.038764685 -0.11426734 -0.15341859 -0.017496873 0.046048757 -0.0125573445 -0.13974324
-0.10165114 -0.053800613 0.053008243 0.046827417 -0.04102708 -0.038238995 0.03461119 0.09444485
0.06491281 0.0719757 0.03506408 0.10541086 0.08626234 -0.0037919837 0.029030457 0.0005588226
0.0055517443 0.009027977 -0.018555723 0.0536395 -0.02253333 -0.074717104 -0.047893606 -0.063201115
0.03590087 -0.0007939249 0.051105104 0.053693883 -0.015189886 0.061282855 -0.021292357 -0.07961265
-0.031102404 -0.08831249 0.020250637 -0.012469209 0.08463256 -0.025040526 5.4529628e-05 0.026430048
0.08169767 -6.9815585e-05 -0.0032164396 -0.026557973 0.0027701138 -0.08701202 0.07524863 -0.010553608
0.086116776 -0.08300693 -0.08610484 -0.07729796 0.013705046 -0.0034771322 0.047659315 0.02453647
0.084301986 -0.085997604 0.06687881 -0.03807145 0.048487917 0.0031019056 -0.024889302 0.02784777
-0.047010347 -0.008229707 -0.0064721126 -0.0014329453 -0.061003983 0.020505456 -0.026691852 -0.051147778

conv2.0.bias f4 [16]
00000000: d15b 12bd 6aa2 16bb bcbd cbbd 547d f1bd
00000010: 0250 debd 16b9 6bbc 4296 98bc 787c 95bd
00000020: 3ed4 6bbd c2c2 28be cf0e 02be 3662 08be
00000030: 6b54 7cbd 7d95 9abd 27ca f2bd 14e8 b5bc
-0.035732094 -0.002298499 -0.09948298 -0.117914826 -0.10855104 -0.01438739 -0.018626336 -0.07299131
-0.057575457 -0.16480544 -0.12700962 -0.13318714 -0.061603945 -0.07548044 -0.11854964 -0.02220539

conv2.2.weight f4 [16]
00000000: 2430 9c3f e88f 953f a6f7 993f d8a7 a13f
00000010: 6b28 a53f 2338 9e3f 8eee 9c3f 0d85 a23f
00000020: dd04 9d3f 37fa a23f 31e3 993f 5a22 9d3f
00000030: 87ae 983f ffd1 9b3f adeb 9d3f 7adb 983f
1.2202191 1.1684542 1.2028701 1.2629347 1.290296 1.2360882 1.2260301 1.2696854
1.2267109 1.273261 1.2022458 1.2276108 1.1928262 1.2173461 1.2337548 1.1941979

conv2.2.bias f4 [16]
00000000: 7ba6 98bd 522d 80bd 4876 17bd df8a f1bc
00000010: e43e 8aba a5af cd3c 5174 98bc 3f6f d43c
00000020: 2029 04bd 2c40 ebba 9e7d 72bd 58a5 88bd
00000030: b981 a1bc 17b5 9bbd 7991 9abd feaa 9ebd
-0.07453629 -0.06258644 -0.036978036 -0.029485164 -0.0010547307 0.025108168 -0.018610151 0.025931953
-0.032265782 -0.0017948202 -0.05920183 -0.06672162 -0.019715177 -0.076028995 -0.07547278 -0.07747458

conv2.2.running_mean f4 [16]
00000000: f0e7 1d3e 8ec4 663e 9b67 853e f5d2 bd3d
00000010: 1048 b43d 525d dd3d b805 0d3e 9054 1a3e
00000020: e8b8 073e 2f13 d53d 55ed c43e 0485 fb3d
00000030: 0a36 993d f75a cf3d a0c6 bb3d 9808 9b3e
0.15420508 0.22535917 0.26055607 0.092687525 0.08802807 0.10808815 0.13771713 0.1507132
0.1325413 0.104040496 0.3846232 0.1228123 0.0748101 0.10124772 0.09168744 0.30279994

conv2.2.running_var f4 [16]
00000000: 7c8e f23d 3789 583e 7e3a 9d3e 6b4a a63d
00000010: e67e a03d f094 d13d cc9d ec3d d5cc 0b3e
00000020: 940a 213e 4b2a cf3d 59c3 c03e 2d19 ef3d
00000030: 613a 9a3d c7b9 8e3d 18b3 943d 1fb7 ac3e
0.11843583 0.21146093 0.30708688 0.08119663 0.07836704 0.10233486 0.11553535 0.13652356
0.15726691 0.101154886 0.37649038 0.11674724 0.07530666 0.06969028 0.07260722 0.3373346

conv3.0.weight f4 [10, 16, 5, 5]
00000000: 8edf 073c 1e98 65bc 1e9e 0e3d b76a 5fbd
00000010: 0098 3ebd 567b e1bc 9da8 42bd 1a89 26bc
00000020: 8aaa c13b 325b 493c 64c1 60bd 4692 c4bd
00000030: 046b ecbc 0a5f 8c3c 9aa1 f9bc d5ac 923d
00000040: bfd7 79bd 7725 39bd 99b4 9abd 8d5c 9bbd
00000050: ef42 1b3d f3fd 903d ad4d 983c 9647 90bd
00000060: aae3 4dbd ab04 b83c 75a5 e5bc 9541 18bc
00000070: d3aa 3d3d 4321 78bc c86f e1bc c199 6bbd
00000080: 3a8b 8a3d 80f5 2c3d f10e 94bc 95ff 713b
00000090: b2df aabc 64c7 8ebd d0e2 42bc 7244 febc
000000a0: 13f6 3cbd cb70 f03c 9422 63bc 574c 8dbd
000000b0: b5b5 c7bd 8c0a 59bc 1efe ab3d 5e2f be3d
000000c0: 3fb5 dcbd 84d2 3abd 4705 cdbc a730 febc
000000d0: 7d6e 09bd 3a05 723d 40f8 da3b 9ff1 603d
000000e0: 7785 c33d ca73 0ebd d01f 52bd a670 193d
000000f0: a219 753d ee54 ba3d 4fa3 93bd 454f b1bd
00000100: 29ea 5b3c a1da 3e3d c19b e7bb b8b1 a2bd
00000110: fc80 a93c 82a4 a83d 53f3 bd3c 146f 03be
00000120: ab58 c3bc b563 38bd 4bde 8dbb 6fbb 9fbd
00000130: 0eea 5fbd 09c9 563c 4228 8a3d 1a20 043c
00000140: 5dfe f13b 85e5 583b 703f 5cbc 8794 4dbc
00000150: dad5 0f3d 02bf 96bd d4a8 9dbd 1514 abbd
00000160: b248 0fbc 4f95 35bd cc31 cdbd 9218 e5bc
00000170: ef59 85bd 31c0 9ebd e511 d5bd 2f55 97bd
00000180: b01c 473d aa88 0c3d 6bfe e1bd 7d68 35bd
00000190: 02d4 70bd 525a 85bd ebd9 a13c 8520 153d
000001a0: c155 913d 55ca 9bbc adeb 8fbd b4d1 ee3c
000001b0: 33c3 753d 4e27 9bbd 3ec3 b53c dac4 4a3d
000001c0: 51d9 c4bc c2da 843d 93e6 16bd 254b a63d
000001d0: 1b51 963d f43f 9cbd c2b3 81bd d594 633c
000001e0: dd64 583d 3431 ac3c e8a3 7bbd 04f7 a7bd
000001f0: d73b 88bc a66c d2bc 8966 6fbd 082f ddbd
00000200: 3dfa 263c 43b2 b53d 0979 aabb 0f8f d93d
00000210: d146 b1bd d844 ed3b 76a8 7d3d 31eb 503d
00000220: 542a 583d 1b64 2bbd fb5c 4e3d a25b a83d
00000230: f0ea 563c 8418 febc ca03 85bd 69be 8fbc
00000240: efe4 0a3d eaca d3ba 7d74 c0bc ac95 a4bd
00000250: efd0 63bb 1e1b bd3d 7361 1bbb 7011 493c
00000260: e635 b73d c35c f03c d296 7c3d 9956 acbd
00000270: be92 5abd 9110 9c3c 85de df3d b43c ee3c
00000280: d475 9ebd ea67 babd 1640 54bd 414f 25bd
00000290: 22c5 cfbd f125 dabd bf16 82bc 32fc 283e
000002a0: 10f8 f63b e73e 57be 2ec1 92bd 1926 8c3c
000002b0: 9a24 ab3d 8936 99bd 0930 8c3d d193 2a3c
000002c0: dd27 373b 882f bc3b 659d e6bd 4f7c a7bc
000002d0: 4bb2 eabc fbb4 ef3c bd5e c6bd 5d55 1ebe
000002e0: 2af2 e0bd b0b2 993c 0dc1 dabb 3e18 c2bc
000002f0: b132 37bd f472 113b b21d 17bd 9475 863d
00000300: ac82 733d bb19 bd3d d3ef 043d 70d3 49bc
00000310: 2800 29bd 7b6d 1bbd 624b e13c 123c 6ebc
00000320: 8047 65bd e974 89bc 79eb d5bd c5b0 8dbd
00000330: 2ec3 183c 0122 ffba 8ee1 073d a349 86bd
00000340: f1c1 2f3d a338 593d f26e 2a3c 684e d53c
00000350: 12be 4fbd 99dd e23b 7724 12bd 1ce0 17bc
00000360: 7fbd aebd 33cf d8bd 563f 7dbc 9c7c 31bd
00000370: fa95 95bc fff5 49bd 2b81 23bc c3d1 cf3c
00000380: 264f 933c 85f6 cd3d db6a 2d3d 2791 5d3d
00000390: d5ec d5bd 0e8d 71bd eb63 403d 892c 3a3d
000003a0: cd20 6ebd 3725 943c 0ea6 e2bd 4a5c 27bd
000003b0: e20b c4bc a2e1 483c 1a87 9ebc b8a0 12bd
000003c0: 9986 ccbd b21c d6bd fd1c f73c bbd9 f73d
000003d0: 635a bb3c 37b3 9dbd 10c6 d2bb 8114 bb3d
000003e0: cb18 d63d f1ef 57bd 2157 a23b a451 89bd
000003f0: 9cf1 b93c 30dd b8bc 7bab 41bd a175 8bbd
0.008293046 -0.014013318 0.03481876 -0.05454513 -0.046531677 -0.027524631 -0.047524083 -0.0101645235
0.0059102224 0.012289809 -0.05487193 -0.09598212 -0.028859623 0.017135162 -0.030472565 0.07161871
-0.060996767 -0.045201745 -0.075539775 -0.07586012 0.03790563 0.07079687 0.018591726 -0.07044904
-0.050265945 0.022463163 -0.028032998 -0.00929298 0.04630549 -0.015144649 -0.027519122 -0.057519678
0.067648366 0.042226315 -0.01807353 0.003692602 -0.02085862 -0.069716245 -0.011894897 -0.031038497
-0.046133112 0.029350659 -0.013863225 -0.06899326 -0.09751455 -0.0132471435 0.083980784 0.09286378
-0.107767574 -0.04561092 -0.02502693 -0.031029059 -0.033552635 0.059087016 0.0066824257 0.054917928
0.09546941 -0.034778394 -0.05129987 0.037460946 0.0598389 0.0909823 -0.07208883 -0.086576976
0.013422527 0.04659522 -0.007068128 -0.079440534 0.020691387 0.082345024 0.023187315 -0.12835342
-0.023845991 -0.045016963 -0.004329478 -0.07799422 -0.05466657 0.013109454 0.0674596 0.008064294
0.007385059 0.0033095789 -0.013442859 -0.012547619 0.035116054 -0.073606506 -0.07698217 -0.0835344
-0.008745359 -0.044331845 -0.100192636 -0.027965818 -0.06511294 -0.07751501 -0.10403804 -0.07389294
0.048611343 0.03431002 -0.110348545 -0.0442891 -0.058795936 -0.06511368 0.019757232 0.036407966
0.070964344 -0.019017378 -0.070273735 0.029152729 0.06000061 -0.07575856 0.022187825 0.04950414
-0.024029406 0.06487037 -0.036840986 0.081198014 0.073396884 -0.076293856 -0.06333114 0.013890465
0.052830566 0.021019556 -0.06143561 -0.08201411 -0.016630096 -0.025686573 -0.058447395 -0.10799986
0.010191497 0.08871891 -0.005202417 0.106229894 -0.08656085 0.007240873 0.061928235 0.051005546
0.052774742 -0.041843515 0.05038164 0.082206026 0.013117537 -0.03101755 -0.06494863 -0.01754685
0.033909734 -0.0016158496 -0.023493046 -0.0803636 -0.0034761985 0.09233688 -0.0023709207 0.012272224
0.08945827 0.029341107 0.06166727 -0.08414955 -0.0533626 0.019050868 0.10931114 0.02908168
-0.07737318 -0.09101851 -0.05181893 -0.040358786 -0.10145022 -0.10651768 -0.015879987 0.16502455
0.0075368956 -0.21020089 -0.07165752 0.01710801 0.083565906 -0.07481105 0.068450995 0.010411219
0.0027947344 0.005742971 -0.112604894 -0.020445017 -0.02864947 0.029261103 -0.09686039 -0.15462251
-0.10983689 0.018761963 -0.0066758455 -0.0236932 -0.044726077 0.0022193762 -0.036893554 0.06565395
0.05945079 0.09233423 0.032455277 -0.012318477 -0.041259915 -0.037946206 0.027501766 -0.014540689
-0.05597639 -0.01677938 -0.104453035 -0.06918482 0.009323878 -0.001946509 0.03317409 -0.06557014
0.042909566 0.05303253 0.010402428 0.026038364 -0.050718375 0.006923389 -0.035679307 -0.00926974
-0.08532237 -0.10586395 -0.015456995 -0.043331727 -0.018259991 -0.049306866 -0.0099795265 0.025368577
0.017982077 0.100567855 0.042338233 0.054093506 -0.10445563 -0.05897241 0.04697029 0.04545263
-0.05813675 0.018084152 -0.11066829 -0.040859498 -0.023931447 0.012260826 -0.01935153 -0.035797805
-0.0998661 -0.10454692 0.03016519 0.12102076 0.022870248 -0.07700198 -0.0064323023 0.0913477
0.10453948 -0.05271906 0.004954234 -0.06705025 0.022698216 -0.022566408 -0.047282677 -0.06809545

conv3.0.bias f4 [10]
00000000: 94ab 333b 20d0 b23d 9cd4 2ebd 63dc b53c
00000010: aab7 693d 7dc6 3bbd bc7e cd3c b51c d03b
00000020: e4fc 24bd 213b 833c
0.00274155 0.08731103 -0.04268323 0.022199815 0.05705992 -0.04584359 0.025084846 0.0063510784
-0.040280238 0.016019406
